gsoc/2024/ISSR_DarkWeb/Analyze_files/CombiningAnalysisCompleteDataset/ThreadAnalysis/Models/topic_model_all-MiniLM-L6-v2_200_safetensors/topic_embeddings.safetensors (safetensors, 66136 bytes, 1 tensors)

topic_embeddings f4 [43, 384]
0	0xbd8d2f5b	-0.06893798
1	0x3c98f675	0.018672207
2	0xbcc8998c	-0.02448728
3	0xbbc7dc72	-0.006099277
4	0xbc8c44a6	-0.017122578
5	0xbd05cc8e	-0.03266578
6	0x3d8e1f1c	0.069395274
7	0x3cc60a77	0.024174912
8	0x3c2694e8	0.010167338
9	0x3a6ae612	0.0008960675
10	0x3b446e52	0.0029972983
11	0xbd5ba60d	-0.053625155
12	0xbcb82dd6	-0.022482794
13	0xbc0b7821	-0.008512528
14	0xbce39378	-0.02778028
15	0x3caa526b	0.020791253
16	0xbc7037ec	-0.01466177
17	0xbc876255	-0.01652638
18	0xbd0e0edd	-0.034682143
19	0xbce7ea3c	-0.028309934
20	0xbd8b14d8	-0.06791085
21	0xbbd14db8	-0.0063874386
22	0xbc6d71a8	-0.01449243
23	0x3bfb7aab	0.0076745353
24	0xbcf00250	-0.029297978
25	0x3c4a6716	0.012353679
26	0xbcc8a01e	-0.024490412
27	0x3d1790f8	0.037003487
28	0x3c912f98	0.01772289
29	0xbdaa4187	-0.083132796
30	0xbc0b24da	-0.008492673
31	0x3c8a5dcf	0.016890435
32	0x3ce85605	0.02836133
33	0x3c22e08d	0.009941232
34	0x3c9b0ab0	0.018925995
35	0x3affd139	0.0019517309
36	0x3b1c1927	0.0023818703
37	0x3c306b13	0.010767716
38	0x3c8de714	0.0173221
39	0xbbd6ea23	-0.006558673
40	0xbc57574d	-0.013143373
41	0xbd404dbf	-0.046949144
42	0xbce6d640	-0.028178334
43	0x3b303518	0.0026887115
44	0x3d187149	0.037217412
45	0x3c3b5199	0.011433029
46	0x3caa737f	0.020807026
47	0x3c753b63	0.014967772
48	0x3d172edd	0.036909927
49	0x3d0f1100	0.03492832
50	0xbc933dee	-0.017973866
51	0xbc9cce8c	-0.019141458
52	0xbabd6d5d	-0.0014452148
53	0xbb03d301	-0.0020114782
54	0x3b853e2f	0.0040662508
55	0xbba37f7f	-0.004989564
56	0xbcbbac91	-0.022909435
57	0x3ba01487	0.0048852596
58	0x3c959b64	0.018262573
59	0xbd11557f	-0.035481926
60	0x3d3275da	0.043569423
61	0xba95b726	-0.001142238
62	0xbd69f2b4	-0.057116225
63	0x3d38a62f	0.04508036
64	0x3bd185a8	0.006394107
65	0x3c8792ca	0.016549487
66	0xbc8f42aa	-0.017487843
67	0x3b805739	0.0039166478
68	0xbced3045	-0.02895368
69	0xbd1c170f	-0.038107928
70	0x3b8f894a	0.00438038
71	0xbb297c1c	-0.0025861328
72	0xbc9356b9	-0.017985689
73	0xbbe007f8	-0.0068368874
74	0x3d196f2d	0.03745954
75	0xbc710817	-0.014711401
76	0x3d1c3d8b	0.03814463
77	0xbd15e0ca	-0.03659133
78	0x3d30b8af	0.043144878
79	0xbb2e0a3b	-0.002655639
80	0xbbf67e42	-0.0075223753
81	0x3cf00843	0.029300814
82	0xbceb2bad	-0.02870735
83	0xbc326885	-0.010889177
84	0x3bd5e5d1	0.0065276404
85	0xbcad257a	-0.021136034
86	0x3cabb3fa	0.020959843
87	0x3d0b4ab1	0.03400678
88	0xbcc678e7	-0.024227573
89	0x3b26b6d5	0.0025438566
90	0x3af9354a	0.0019013074
91	0x3d494b7e	0.04914426
92	0x3cac104f	0.02100387
93	0x3b9338ad	0.0044928403
94	0xbd0efb7e	-0.03490781
95	0x3cdbccb5	0.02683101
96	0x3ce265d9	0.027636455
97	0xbaa53377	-0.0012603839
98	0xbd330710	-0.043707907
99	0x3e79335f	0.24336003
100	0x3cfe1ab9	0.031018602
101	0x3d3741e4	0.044740573
102	0xbab6c3c0	-0.0013943836
103	0x3c81babf	0.015836118
104	0xbc6dec67	-0.014521695
105	0x3c02ccd4	0.007983405
106	0xbd31362b	-0.04326455
107	0x3d4cce08	0.050001174
108	0x3b78e60c	0.0037978915
109	0x3b71e7e1	0.0036911892
110	0xbd49d6d4	-0.04927714
111	0x3cceb73b	0.025233855
112	0xbd3627b2	-0.04447145
113	0x3bd4fcfe	0.0064998856
114	0x3b7c1160	0.0038462505
115	0x3cffed63	0.031241124
116	0xbc8f0e2f	-0.017462818
117	0x3d00aba9	0.031413708
118	0x3cf92e91	0.030417712
119	0xbccb7bd5	-0.024839321
120	0x3c85b724	0.01632268
121	0x3c737699	0.014859819
122	0xbcd75bc4	-0.026288874
123	0xbc9d6218	-0.019211814
124	0xbd0fec17	-0.035137262
125	0xbd44a900	-0.048012733
126	0x3bc31504	0.005953433
127	0x89a95600	-4.0766144e-33
128	0x3bba968e	0.005694217
129	0x3c1cc762	0.009569021
130	0x3c64d5f5	0.013967027
131	0x3cecb79e	0.02889615
132	0x3c11fe77	0.008910767
133	0x3cd844d5	0.02640001
134	0x3c8d8931	0.017277332
135	0xb9dfc190	-0.0004267809
136	0xbd4dbe42	-0.050230272
137	0x3d490459	0.049076412
138	0xbbf11227	-0.0073569003
139	0xbb41059d	-0.0029452809
140	0xbcfc951d	-0.030832822
141	0x3cca9e8b	0.024733802
142	0x3d66555b	0.056233745
143	0x3b661adc	0.0035111224
144	0x3c85c8b9	0.016331064
145	0x3cd016e5	0.025401542
146	0xbc7c0b3e	-0.01538354
147	0x3ab2fa5c	0.0013654935
148	0xbd1a1ac1	-0.03762317
149	0x3c7e5bb2	0.015524792
150	0xbb669d74	-0.0035189064
151	0x3d799665	0.060934443
152	0xbcadadb3	-0.02120099
153	0xbcb88376	-0.022523623
154	0x3c4a4638	0.012345843
155	0xbcefd740	-0.029277444
156	0x3d03bc29	0.032161865
157	0x3c6d03f6	0.014466276
158	0xbc96fb94	-0.018430509
159	0x3b11e570	0.0022262
160	0x3bf3d003	0.0074405684
161	0x3bae729d	0.0053237216
162	0xbc81184d	-0.015758658
163	0xbca64b5a	-0.020299602
164	0xbc02f26e	-0.00799237
165	0xbd4ca133	-0.04995842
166	0x3c5e5e8a	0.013572345
167	0xbd387bd1	-0.045039956
168	0xbc0275b3	-0.007962632
169	0x3cf1ffcf	0.029540924
170	0xbd08d2db	-0.033404212
171	0x3c93d980	0.018048048
172	0xbc9ebc60	-0.019376934
173	0x3cab365f	0.02089995
174	0x3d211be2	0.03933323
175	0x3cc3a1ce	0.023880865
176	0xbae2dc85	-0.0017308152
177	0x3d1a4fa7	0.03767362
178	0xbd098998	-0.033578485
179	0xbab6ab8b	-0.0013936622
180	0xbdcab02e	-0.09896885
181	0x3ceff11f	0.02928978
182	0xbc9d89cb	-0.019230744
183	0xbd1a50fd	-0.037674893
184	0x3ca07e8b	0.01959159
185	0xbce0ac12	-0.0274258
186	0x3c06651e	0.008202819
187	0xbca02294	-0.019547738
188	0x3d47061c	0.04858981
189	0x3da5f4ef	0.08103358
190	0xbc6ca8a2	-0.014444502
191	0x3c1b0635	0.009461929
192	0xbc9e2638	-0.019305333
193	0xbd31fd03	-0.04345418
194	0x3b39bdd7	0.0028341913
195	0xbd02faa9	-0.03197733
196	0x3c055311	0.00813748
197	0xbc4e38b3	-0.01258676
198	0xbd4c5b0b	-0.049891513
199	0x3ca67e01	0.020323755
200	0x3d951e0b	0.07281121
201	0x3c3b2ceb	0.0114242835
202	0xbc34d825	-0.011037861
203	0xbc93f54c	-0.018061303
204	0xbb655162	-0.0034991135
205	0x3ca51ce9	0.020155387
206	0x3bae08e4	0.0053111184
207	0xbca06bac	-0.019582592
208	0xbcecb635	-0.028895477
209	0x3c0a9d9e	0.00846043
210	0xbc62966e	-0.013829811
211	0x3d49d6a8	0.049276978
212	0x3ce815e2	0.028330747
213	0x3c33313b	0.01093703
214	0xbc0ec3eb	-0.008713703
215	0xbd29c8c0	-0.041451216
216	0x3ce24e1d	0.027625138
217	0x3b0ce927	0.0021501274
218	0xbdae1134	-0.08499375
219	0x3bd3180a	0.0064420747
220	0x3d4d1c04	0.050075546
221	0x3cd82a43	0.02638734
222	0x3b715041	0.0036821517
223	0x098b255e	3.3498173e-33
224	0xbd1f5a89	-0.0389047
225	0xbcc30bb2	-0.023809288
226	0xbc356724	-0.011071954
227	0x3d40afda	0.047042705
228	0x3cbb625e	0.022874054
229	0x38dd3fb7	0.00010549969
230	0x3cb811fc	0.022469513
231	0xbb00b904	-0.0019641528
232	0x3c7e4717	0.015519879
233	0x3d291261	0.041277293
234	0xbc44ece8	-0.0120193735
235	0xbcc24c2b	-0.02371796
236	0x3d6cb8e9	0.05779353
237	0xbb82e14d	-0.003994143
238	0x3d7bf687	0.061514404
239	0x3cff6be4	0.031179376
240	0x3d0ddc97	0.0346342
241	0xbc8d1ac6	-0.01722468
242	0xbc025438	-0.00795465
243	0x3c647db4	0.013945986
244	0xbc955983	-0.01823116
245	0xbb7a78a4	-0.003821888
246	0x3aad72b1	0.0013233033
247	0x39082284	0.00012982829
248	0xbccb7a75	-0.024838666
249	0x3cfecd33	0.031103706
250	0x3d86fab9	0.0659079
251	0x3cc84150	0.024445206
252	0xbcb5d284	-0.022195108
253	0xbbdb2125	-0.0066873007
254	0x3cf11139	0.029427158
255	0xbcab59c8	-0.020916834
