gsoc/2024/ISSR_DarkWeb/Analyze_files/CombiningAnalysisCompleteDataset/ThreadAnalysis/Models/topic_model_all-MiniLM-L6-v2_150_20n_safetensors/topic_embeddings.safetensors (safetensors, 106072 bytes, 1 tensors)

topic_embeddings f4 [69, 384]
-0.068817414 0.0048127486 -0.004980186 -0.0052081435 -0.0044708294 -0.027360082 0.05572131 0.025384283
0.007439256 0.016475718 0.0014754913 -0.05283258 -0.024924416 -0.010632829 -0.01689384 0.024522344
-0.02090856 -0.021934584 -0.06249962 -0.02124095 -0.051533233 0.0068233605 0.0029268633 0.0075138854
-0.029411554 0.0020917999 -0.024146298 0.049556352 0.015606428 -0.075565465 0.0065266755 0.0020569365
0.042531203 0.0076361443 0.025833514 -0.016845021 0.006882128 0.018622177 -0.0006122427 -0.015851086
-0.0144353155 -0.044046007 -0.01160313 0.008397394 0.034976155 0.030898891 0.027207466 0.007367349
0.034192264 0.036389075 -0.0140957255 -0.011765979 -0.0049265632 -0.0017340075 0.011526542 0.007314587
-0.01671797 0.025001906 0.006461182 -0.012298314 0.042815782 -0.0060276543 -0.048689928 0.04440551
0.0013147923 0.0066864653 -0.011133878 0.011123691 -0.02259521 -0.04281385 -0.021546058 0.03481479
-0.022393884 -0.015574961 0.04222911 -0.005416987 0.02757854 -0.030129174 0.032498322 0.0092598
-0.017534347 0.013764749 -0.0355534 -0.0039196163 0.015193517 -0.025111781 0.02297336 0.016568763
-0.04206352 0.010773541 -0.006501228 0.04115879 0.038604252 0.005288904 -0.04821634 0.029119672
0.037756693 -0.008493689 -0.07077687 0.25123614 0.018831579 0.040485244 -0.0019191366 0.016677808
-0.008504653 0.0037624685 -0.03732619 0.054231644 -0.010961893 -0.010063101 -0.026546946 0.024420233
-0.025518058 0.011415531 -0.004453321 0.022322545 -0.00987032 0.0323439 0.03941846 -0.027495177
0.013017862 0.00093201746 -0.005602899 -0.011262036 -0.045009345 -0.07963323 0.021550076 -3.3293898e-33
0.02262553 0.0041510137 0.0155749675 0.033566527 -0.0050771874 0.012492754 0.015621369 -0.010396817
-0.046887863 0.044387102 0.005305161 0.0074719717 -0.02087065 0.019138439 0.06445571 -0.0020104253
0.031959172 0.03480767 -0.01664587 0.004343957 -0.02154167 0.02613288 -0.009179259 0.055630878
-0.026005106 -0.015565054 0.0013170495 -0.031446423 0.012784129 0.012461013 -0.02114142 0.0098696
0.00074828014 0.0066988524 -0.00025664264 -0.008368258 0.00082676765 -0.043323226 0.0019637758 -0.05371484
-0.011581598 0.018655853 -0.05597514 0.011243354 -0.009008611 0.010080371 0.03537543 0.026660819
0.010383456 0.045547258 -0.014189604 -0.013825946 -0.09833913 0.024271078 -0.041687045 -0.01844374
0.019080466 -0.027589463 0.029603811 -0.021454308 0.044333927 0.07868063 -0.0012951574 -0.0004556351
-0.030608745 -0.049580023 0.008423934 -0.044360116 0.008807439 -0.009795837 -0.05139093 0.018575309
0.0737383 0.0069705574 -0.014006605 -0.019658936 -0.0068578655 0.005296784 -0.011463892 -0.0011992012
-0.01963445 0.01157166 -0.028414791 0.054451328 0.05538102 0.019048136 -0.004088565 -0.025256334
0.015853517 -0.0026108185 -0.063500665 -0.0056156744 0.0336321 0.025975008 -0.02128755 2.8551435e-33
-0.044983834 -0.02052812 -0.032519154 0.031584017 0.015654998 -0.0067612035 0.031837225 0.02274551
0.008451728 0.025668167 -0.019615032 -0.027645959 0.05811833 0.009629053 0.05050927 0.036794983
0.042674005 -0.016337665 -0.02779029 0.013932358 -0.031001009 -0.00804669 -0.00447115 0.014286923
-0.03096039 0.026869971 0.08454624 0.050246015 -0.021100711 -0.00843912 0.041220147 -0.016585141
00000000: 25f0 8cbd 43b4 9d3b d430 a3bb 13a9 aabb
00000010: 0980 92bb 4022 e0bc 073c 643d b3f2 cf3c
00000020: 01c5 f33b 16f8 863c 4665 c13a fa66 58bd
00000030: 4a2e ccbc 5135 2ebc f364 8abc 15e3 c83c
00000040: 6e48 abbc 28b0 b3bc 9aff 7fbd 8001 aebc
00000050: 8314 53bd 7f96 df3b 9ed0 3f3b 0a37 f63b
00000060: 80f0 f0bc 9416 093b 75ce c5bc 9afb 4a3d
00000070: 1ab2 7f3c 11c2 9abd b9dd d53b abcd 063b
00000080: 3335 2e3d 9f38 fa3b cea0 d33c 92fe 89bc
00000090: 7983 e13b 898d 983c e97e 20ba 23da 81bc
000000a0: 1a82 6cbc 9669 34bd 0e1b 3ebc 3995 093c
000000b0: 2843 0f3d ac1f fd3c 31e2 de3c ce69 f13b
000000c0: 300d 0c3d b60c 153d c2f1 66bc 18c6 40bc
000000d0: 026f a1bb a347 e3ba d2d9 3c3c 34af ef3b
000000e0: 20f4 88bc ccd0 cc3c 53b8 d33b de7e 49bc
000000f0: 9a5f 2f3d a183 c5bb 176f 47bd 8de2 353d
00000100: 1c55 ac3a 231a db3b de6a 36bc 2440 363c
00000110: 9719 b9bc 935d 2fbd 5c81 b0bc f499 0e3d
00000120: 6173 b7bc 1f2e 7fbc 6ef8 2c3d fb80 b1bb
00000130: 64ec e13c 75d1 f6bc f61c 053d 6bb6 173c
00000140: 31a4 8fbc 8b85 613c 71a0 11bd 2070 80bb
00000150: 3bee 783c 39b7 cdbc a132 bc3c 37bb 873c
00000160: cc4a 2cbd 8283 303c 4108 d5bb 1f96 283d
00000170: 7e1f 1e3d 8b4e ad3b 7f7e 45bd 618c ee3c
00000180: c3a6 1a3d 1d29 0bbc 77f3 90bd 06a2 803e
00000190: af44 9a3c dbd3 253d 8a8b fbba e69f 883c
000001a0: 1a57 0bbc bf93 763b 59e3 18bd 0022 5e3d
000001b0: 8399 33bc b4df 24bc fb78 d9bc f10c c83c
000001c0: 3f0b d1bc 3508 3b3c 2aed 91bb c5dd b63c
000001d0: 1fb7 21bc 0a7b 043d 4075 213d 913d e1bc
000001e0: df48 553c a252 743a 8698 b7bb 6784 38bc
000001f0: b85b 38bd bf16 a3bd c989 b03c 254c 8a89
00000200: 2d59 b93c 3a05 883b 262e 7f3c 0e7d 093d
00000210: 895e a6bb 68ae 4c3c c5f0 7f3c 6957 2abc
00000220: 7d0d 40bd 40cf 353d ead6 ad3b 71d7 f43b
00000230: edf8 aabc 37c8 9c3c 5b01 843d 57c1 03bb
00000240: 9fe7 023d 7d92 0e3d eb5c 88bc c157 8e3b
00000250: 2878 b0bc 9f14 d63c 9a64 16bc 34dd 633d
00000260: a908 d5bc 9104 7fbc d9a0 ac3a f7cd 00bd
00000270: 8674 513c 4729 4c3c c530 adbc 1ab4 213c
00000280: 3b28 443a 0c82 db3b fe8d 86b9 051b 09bc
00000290: 70bb 583a b273 31bd b1b2 003b 1804 5cbd
000002a0: bec0 3dbc 29d4 983c 3046 65bd 0b36 383c
000002b0: da98 13bc 2428 253c d4e5 103d ca67 da3c
000002c0: 5f1f 2a3c c38f 3a3d 837b 68bc 3886 62bc
000002d0: 0766 c9bd 24d4 c63c 09c0 2abd 5417 97bc
000002e0: a34e 9c3c 4c03 e2bc b183 f23c f2c0 afbc
000002f0: 7e97 353d 4f23 a13d 45c2 a9ba 4fe2 eeb9
00000300: 31bf fabc 6c14 4bbd 8a04 0a3c f4b2 35bd
00000310: 144d 103c b87e 20bc 4c7f 52bd 3f2b 983c
00000320: 1b04 973d 4669 e43b f67b 65bc c70b a1bc
00000330: f2b7 e0bb a590 ad3b 0cd3 3bbc 842e 9dba
00000340: 6dd8 a0bc 0f97 3d3c 23c6 e8bc 5b08 5f3d
00000350: 35d7 623d d60a 9c3c 5ef9 85bb 5fe6 cebc
00000360: 3cdf 813c 441a 2bbb a30c 82bd b103 b8bb
00000370: d0c1 093d 8ac9 d43c 3a63 aebc 3032 6d09
00000380: f840 38bd 972a a8bc ce32 05bd 3e5e 013d
00000390: e93e 803c 168d ddbb c067 023d cb54 ba3c
000003a0: 1e79 0a3c 0c46 d23c b4af a0bc c779 e2bc
000003b0: 7c0d 6e3d 2dc3 1d3c cfe2 4e3d 56b6 163d
000003c0: f0ca 2e3d 91d6 85bc 76a8 e3bc 8b44 643c
000003d0: d4f5 fdbc 44d6 03bc ba82 92bb b313 6a3c
000003e0: a5a0 fdbc 6a1e dc3c 9426 ad3d c4ce 4d3d
000003f0: 66db acbc 3c44 0abc 75d6 283d 90dd 87bc
