gsoc/2024/ISSR_DarkWeb/Analyze_files/CombiningAnalysisCompleteDataset/ThreadAnalysis/Models/topic_model_0.50Sil300_safetensors/topic_embeddings.safetensors (safetensors, 34904 bytes, 1 tensors)

topic_embeddings f4 [17, 512]
000000 7b 29 04 3c 19 07 d1 3b 0b 08 ef bb 56 ca 59 3c
       0.00806653 0.00637902 -0.00729466 0.01329287
000010 da fa 08 3d 9d 67 c4 bc 45 48 5f bc 74 c8 47 bc
       0.033442356 -0.023975188 -0.01362807 -0.012193788
000020 47 12 37 bc 0c ac 5f 3c 95 3a a8 bc c9 8a 81 3c
       -0.011173791 0.013651859 -0.020535747 0.015813248
000030 a0 36 5d bb 3b 45 f5 3b a1 01 f1 ba 0d d2 11 bd
       -0.0033754483 0.0074850596 -0.0018387326 -0.03560071
000040 7c 63 af 3c f6 9d 21 3d c1 54 66 3a 29 c4 ff 3a
       0.021409743 0.039457284 0.0008786433 0.0019513416
000050 a9 7e ba 3a a4 21 03 3c 9f bd 34 bc c2 ac e0 3c
       0.0014228421 0.008003626 -0.011031537 0.027426127
000060 52 75 94 3b 2f 2d 83 bb 6e b1 60 ba 28 32 5c 3c
       0.0045305872 -0.004003189 -0.0008571361 0.013439693
000070 22 47 a7 bc d9 8a 1b bc 41 3e ba bc bf 28 ee ba
       -0.020419661 -0.009493553 -0.022734763 -0.0018170102
000080 86 92 61 ba 72 2a 25 bd 68 5a 8f 3b 87 2b 90 bc
       -0.00086049025 -0.040323682 0.004374791 -0.01759888
000090 25 5f 66 bc 05 a0 29 3b c3 24 08 bc 9b b6 18 3b
       -0.01406077 0.0025882733 -0.008309546 0.00233022
0000a0 8f 64 c4 b9 99 96 53 3c e4 a4 8d bb 3c f5 2b bb
       -0.00037458955 0.012914323 -0.004322635 -0.00262387
0000b0 9a cb c1 3b 96 24 d6 bc e4 f2 4e 3b 54 7c 96 bb
       0.005914164 -0.026140492 0.003157788 -0.004592458
0000c0 63 75 1b 3c 60 3b 77 3b 7b c8 6a bb 20 42 fa 3b
       0.009488436 0.00377246 -0.0035825062 0.0076372772
0000d0 5c 08 d3 bb c1 be 50 bb 6f 49 b7 3a da b2 8c bc
       -0.0064402055 -0.003185198 0.0013983677 -0.017175127
0000e0 03 77 0e 3b 43 75 aa 3b 50 6f d1 3b bb fa 2b 3c
       0.0021738417 0.005201967 0.0063914433 0.0104967905
0000f0 67 1b 2a 3c 5c 52 aa ba 1b 4b 04 bc 45 cd 1b bc
       0.01038251 -0.0012994516 -0.008074547 -0.009509389
000100 e9 27 2d bc 0c 00 fa 3b 05 91 18 3c b4 43 ee 3b
       -0.010568597 0.0076294 0.009311919 0.0072712544
000110 16 12 03 bb 33 df ef bc a5 e3 48 3b 97 ab 5c bb
       -0.0019999794 -0.029281234 0.0030653265 -0.0033671611
000120 c7 2d 02 3c e8 f4 9f bb 08 80 45 bc 76 74 d4 3b
       0.0079454845 -0.00488149 -0.012054451 0.00648361
000130 79 aa 4e bb 92 62 1f 3c 9a 20 bb bb 32 0b 5c bb
       -0.0031534715 0.009728091 -0.0057106735 -0.003357601
000140 1a 52 98 3a 9f ba 96 bd 6a f4 19 bd d6 5f c8 3a
       0.0011621148 -0.07359814 -0.037586607 0.001528735
000150 db b1 40 bc 0f c6 07 3c fa c5 a2 3c 12 58 74 3c
       -0.011761154 0.008286967 0.019869793 0.014913576
000160 c7 5f 91 bc 25 98 b6 ba 6e d3 28 3c 90 23 0f 3c
       -0.017745866 -0.0013930841 0.010304315 0.008736506
000170 80 f9 55 3a 4e 55 36 3c ba 78 55 bd e7 80 19 3d
       0.00081624836 0.011128737 -0.052117087 0.037476446
000180 e7 ff 4d bc 72 e1 aa 3c 2d 20 01 bd 99 80 9e 3b
       -0.012573219 0.020859454 -0.031524826 0.0048371074
000190 1b 7b 33 3d 6b 92 ff ba f4 64 92 3c e8 50 22 3b
       0.043818574 -0.0019498592 0.017870404 0.0024767462
0001a0 57 44 f6 3c f1 08 da 3a ec 8a 23 3c 57 b8 6c bc
       0.030061884 0.0016634745 0.009981852 -0.014448247
0001b0 f8 2d e7 bb e4 11 ac ba 5a 3d 59 bc 58 39 c7 3d
       -0.0070550404 -0.001312789 -0.013259256 0.09727734
0001c0 41 93 6b 3a 41 67 db 3b 6f 37 3a 3d 18 85 85 3a
       0.0008986481 0.0066956584 0.04546302 0.001018676
0001d0 3f 0e a0 3c ce 4c e4 ba 6d 96 c0 3d d0 ee 12 bc
       0.019538043 -0.0017417909 0.094036914 -0.00896807
0001e0 0b c3 0b 3c be d2 b0 bc e6 67 ca 3c 5a 87 0f bc
       0.008530389 -0.021584865 0.024707746 -0.008760298
0001f0 71 d2 db bb c5 a2 ff bb d2 ff 9a 3c 19 bc 77 bc
       -0.006708436 -0.007801386 0.018920813 -0.01512053
000200 27 8d 24 bc 63 72 d3 bb c6 c6 5c 3b 1b 91 57 3c
       -0.010043419 -0.006452845 0.0033687814 0.013157154
000210 96 89 40 bc 70 ce 0a 3a 71 9b e2 bb 85 68 93 ba
       -0.011751553 0.0005295044 -0.0069155027 -0.0011246359
000220 1d 5c 89 3c e2 a8 da 3b fe 6d 98 bc 0e 60 4e 3a
       0.016767556 0.0066729644 -0.018607136 0.00078725896
000230 98 1f 4e 3b 1f ad 27 3c a7 fe 3e 3c 07 38 bf 3b
       0.0031451937 0.010234146 0.011657394 0.0058355364
000240 a1 77 fd bc 97 3f a6 bc ef d6 38 3b c8 78 3a bb
       -0.030940833 -0.020293994 0.0028204282 -0.002845334
000250 e7 68 51 3a 70 d7 1f bb 78 35 c9 ba a9 36 98 bc
       0.0007988349 -0.0024389885 -0.0015351018 -0.018580751
000260 3c 7d 39 3b 9c 40 3b bc 5a d2 66 3c 43 0a 5f 3c
       0.0028303405 -0.011428978 0.014088238 0.013613286
000270 0e 01 2d 3c 0c d1 ea 3b cd 6d cb 3b 35 e0 5f bb
       0.0105593335 0.0071660336 0.0062081576 -0.0034160737
000280 b7 0a 5d 3b 54 af cc bc c8 b0 2c bc 8f 27 89 3b
       0.003372831 -0.024985947 -0.010540195 0.004185624
000290 c6 85 27 3b 2d 86 ff bb b7 78 2f 3c 0a a9 54 bd
       0.0025561913 -0.0077979774 0.010709933 -0.05191902
0002a0 4b e7 c7 3b 08 b6 b1 3a 6a 8c a7 bd e2 8a 64 3d
       0.0061005703 0.0013558278 -0.08181079 0.05579651
0002b0 f3 e7 f9 bc 85 17 7b bc f4 8f 6b bb dd 2e 73 3a
       -0.03050611 -0.015325432 -0.0035943957 0.00092766975
0002c0 54 a4 03 bb 5b 36 b1 bb 76 d3 5c bc 13 d2 00 bc
       -0.002008696 -0.005408091 -0.013478151 -0.007862586
0002d0 61 f9 44 3c 0d b7 38 3b b7 41 07 bb 33 ae 0d 3c
       0.012022347 0.0028185279 -0.0020638534 0.008647489
0002e0 38 97 c0 b8 3c 8c c0 bb b7 11 58 bc c6 f4 61 3b
       -9.18344e-05 -0.0058760922 -0.013187817 0.0034478172
0002f0 fa a5 5d 3c 13 e1 72 ba dd ed e5 3c 6f 78 eb bc
       0.013528341 -0.0009265106 0.028067524 -0.02874395
000300 81 b0 ad b7 42 08 01 bc 20 2b 8c bc 3e 48 18 bc
       -2.0705398e-05 -0.007875504 -0.017110407 -0.009294568
000310 44 1f e5 bb 6c e8 65 3b 49 60 79 bc ff a3 2b 3c
       -0.0069922525 0.0035081161 -0.01522071 0.010476111
000320 2e be 81 3c 9d 10 54 bc c2 92 66 bb 16 d4 c8 bc
       0.015837755 -0.012943414 -0.003518269 -0.024515193
000330 c5 01 0c 3c f1 4c 97 3b 56 e3 6a bc 50 7a 76 bc
       0.008545344 0.0046173264 -0.014336428 -0.01504381
000340 e1 2c cb 3b 50 8f d8 3b 88 95 9f bb c4 aa 19 bb
       0.0062004183 0.006608881 -0.0048701204 -0.0023447732
000350 bb e2 c3 3b d2 66 53 3c 4c df c6 3c b2 24 47 ba
       0.005977956 0.012902932 0.024276398 -0.00075967156
000360 cf 43 00 bc 80 1e db 3b a6 60 f5 ba 17 8b fc 3b
       -0.007828667 0.0066869855 -0.001872082 0.0077070105
000370 a4 7d 98 bb 36 f1 e7 ba ba 58 e6 ba 3f 58 a0 bc
       -0.0046536494 -0.0017695788 -0.001757405 -0.019573329
000380 9f c2 46 bc cd 56 23 3c 6f 8d 0b 3b 26 df 9a bc
       -0.012131362 0.009969425 0.0021294018 -0.018905234
000390 83 64 4e 3c 05 a8 4a 3c 3e f7 75 3c 14 63 8e bb
       0.012597206 0.012369161 0.01501256 -0.004345307
0003a0 f7 ff c5 3b 33 ce ef 3a 2d bf 80 bc de a3 48 3c
       0.0060424763 0.0018295705 -0.01571616 0.0122461
0003b0 6f fd 04 3c 8a 28 b1 bb b7 7a 35 3d c9 ee 43 3d
       0.008117064 -0.005406444 0.044306483 0.047835145
0003c0 3a 42 3d 3c c3 d0 4c bd c5 5b c6 b9 92 10 a9 38
       0.011551434 -0.05000378 -0.00037833877 8.0616344e-05
0003d0 76 73 04 bb e7 d0 f0 ba 68 f5 0a bb 8d d2 45 3c
       -0.0020210422 -0.0018372805 -0.0021203402 0.012074125
0003e0 8f 08 22 3b 79 76 c1 3c 09 f0 04 3d 35 4c ad 3b
       0.002472434 0.023616062 0.032455478 0.0052886256
0003f0 f0 c1 17 3c 27 a6 72 bc 44 fc 87 3b dd 35 61 bc
       0.009262547 -0.014810122 0.0041499455 -0.013745752
