gsoc/2024/ISSR_DarkWeb/Analyze_files/CombiningAnalysisCompleteDataset/ThreadAnalysis/Models/topic_model_0.64SilNew_safetensors/topic_embeddings.safetensors (safetensors, 16472 bytes, 1 tensors)

topic_embeddings f4 [8, 512]
0.005880674 0.0042869374 -0.0058254716 0.013305222 0.03227415 -0.022682056 -0.017222201 -0.0140877
-0.008703653 0.012934033 -0.016466735 0.0146820005 -0.001888344 0.01022798 -0.0007318846 -0.033891972
0.020288257 0.0388347 -0.0029044126 0.0056697065 0.0027763867 0.008936004 -0.004876579 0.026707357
0.005422922 0.0013627063 0.0024724288 0.013361916 -0.016310258 -0.012461795 -0.019800838 -0.0032480648
2.8475999e-05 -0.039868332 0.005891182 -0.017850209 -0.009769209 0.0004884462 -0.007796836 0.0029509321
-0.0017365122 0.014767093 -0.005994178 -0.0026127591 0.010061391 -0.024483442 0.0018066781 -0.0042043277
0.009222266 0.0026726536 -0.007363218 0.008883315 -0.008821976 -0.0023648532 0.0030269178 -0.015212397
0.0024239847 0.008059758 0.0047243326 0.010732574 0.009996989 -0.0009681258 -0.008490198 -0.006455321
-0.009781143 0.011194966 0.008549827 0.010084702 -0.00032731862 -0.029483702 0.0025880025 0.0025485067
0.008155311 -0.0075068767 -0.012290498 0.006243933 -0.007501994 0.01131682 -0.0047217417 -0.0048308903
-0.0013441809 -0.07571896 -0.03473227 0.0036662903 -0.008446611 0.010087642 0.018155776 0.017808584
-0.016265893 -0.0010586613 0.010068057 0.008905914 0.0019877916 0.014802072 -0.04887385 0.036401786
-0.012768891 0.024623048 -0.032348618 0.007883575 0.03872058 -0.0030543571 0.015290594 0.00076159294
0.03454467 0.00079870794 0.0071518617 -0.015062484 -0.007278855 0.0014434538 -0.011497381 0.09394428
0.0038851595 0.008505626 0.04205894 0.00014130029 0.01862278 -0.000805483 0.09477087 -0.006361348
0.004885223 -0.022381209 0.019485295 -0.009511433 -0.0042712386 -0.00876435 0.01781927 -0.011020858
-0.009241691 -0.005514927 -0.0008969328 0.011423797 -0.010120297 3.379313e-05 -0.00848621 -0.00093221717
0.015885085 0.0071718562 -0.01880369 0.00081897486 0.005983813 0.0074120415 0.013916993 0.0015002474
-0.033295624 -0.023466578 0.0022195126 -0.00292073 0.0011375641 -0.0016831112 -0.004084717 -0.021831954
0.0045721405 -0.0075706244 0.01591761 0.0133581925 0.008773142 0.007264722 0.006019093 -0.0035879046
0.004178305 -0.024630712 -0.013068531 0.002204008 -0.00039081322 -0.0101296045 0.010384937 -0.050115164
0.006928362 0.0011154911 -0.08067092 0.05272969 -0.028960014 -0.016543632 -0.003831156 -0.0011275393
0.00022061494 -0.007946434 -0.01519359 -0.008033909 0.012473829 0.0013423145 -0.003742931 0.009422282
0.0007552502 -0.004038828 -0.010813192 0.001542876 0.011012637 -0.001293428 0.025388423 -0.030139918
0.0017141525 -0.00978947 -0.016162282 -0.008050933 -0.0076858923 0.0023697293 -0.014787241 0.010503929
0.015466417 -0.011070905 -0.0022864884 -0.024949336 0.0073143276 0.00021494988 -0.017210359 -0.015370665
0.0026725451 0.007666139 0.00013427681 -0.003458311 0.008714811 0.012876815 0.018071713 -0.0017815502
-0.0071249427 0.007086106 -2.5851004e-05 0.0048399633 -0.002588269 -0.0034658166 -0.0038474693 -0.020880232
-0.01238107 0.010570622 0.0019705787 -0.022307696 0.0128923645 0.0109799085 0.015830677 -0.0055453707
0.005171137 -0.002800346 -0.013776629 0.007320761 0.0078018387 -0.0044282586 0.046733595 0.0479165
0.014501349 -0.049965277 0.0005799976 -0.0014107436 -0.0021990235 -0.0030023186 -0.005707135 0.015014964
0.004559485 0.023002988 0.027189443 0.006920418 0.0065554352 -0.014048631 0.006399069 -0.01430301
00000000: abb2 c03b 7079 8c3b 99e3 bebb 25fe 593c
00000010: e631 043d b8cf b9bc 9315 8dbc 19d0 66bc
00000020: c499 0ebc 44e9 533c 3fe5 86bc c68c 703c
00000030: 4f82 f7ba 4293 273c f2db 3fba 4fd2 0abd
00000040: 8f33 a63c 2211 1f3d f557 3ebb f2c8 b93b
00000050: 0af4 353b 5168 123c b6cb 9fbb 63c9 da3c
00000060: c4b2 b13b d69c b23a 7908 223b f0eb 5a3c
00000070: 179d 85bc 8e2c 4cbc 5e35 a2bc 7cdd 54bb
00000080: bedf ee37 fa4c 23bd d10a c13b 9a3a 92bc
00000090: 080f 20bc 120b 003a 9a7c ffbb 6d64 413b
000000a0: ae9b e3ba adf1 713c cf6a c4bb d33a 2bbb
000000b0: 88d8 243c 8091 c8bc 0fce ec3a 75c4 89bb
000000c0: fd18 173c b027 2f3b 2647 f1bb 538b 113c
000000d0: 0d8a 10bc a7fb 1abb 415f 463b 6b3d 79bc
000000e0: b7db 1e3b 130d 043c 93ce 9a3b aed7 2f3c
000000f0: 69ca 233c d3c9 7dba 791a 0bbc 2887 d3bb
00000100: 1641 20bc 176b 373c 9314 0c3c 4e3a 253c
00000110: f69b abb9 ce87 f1bc 7a9b 293b d904 273b
00000120: db9d 053c 3ffc f5bb 165e 49bc e899 cc3b
00000130: 49d3 f5bb 2f6a 393c d7b8 9abb 724c 9ebb
00000140: 3a2f b0ba 8b12 9bbd 6d43 0ebd 2546 703b
00000150: a863 0abc a346 253c 6cbb 943c 4fe3 913c
00000160: 0d40 85bc c7c2 8aba 7ef4 243c 1cea 113c
00000170: 9c45 023b 6484 723c f22f 48bd 0a1a 153d
00000180: 9c34 51bc 46b6 c93c fc7f 04bd 1c2a 013c
00000190: 7999 1e3d 9c2b 48bb 6685 7a3c a3a5 473a
000001a0: b67e 0d3d 6260 513a 2a5a ea3b a3c8 76bc
000001b0: 7683 eebb 4632 bd3a 835f 3cbc dc65 c03d
000001c0: 299e 7e3b 2e5b 0b3c ff45 2c3d 022a 1439
000001d0: cd8e 983c 0d27 53ba 3b17 c23d db72 d0bb
000001e0: 3914 a03b cc58 b7bc a09f 9f3c d7d5 1bbc
000001f0: bff5 8bbb 5998 0fbc b8f9 913c d490 34bc
00000200: 766a 17bc 90b6 b4bb 2420 6bba e12a 3b3c
00000210: 9acf 25bc 19bd 0d38 bf09 0bbc 0960 74ba
00000220: 7021 823c e401 eb3b 320a 9abc 79b0 563a
00000230: dd13 c43b b6e0 f23b 1904 643c f3a3 c43a
00000240: fe60 08bd fb3c c0bc 3e75 113b b869 3fbb
00000250: 511a 953a d79b dcba 17d9 85bb edd8 b2bc
00000260: e5d1 953b 0013 f8bb a665 823c 52dc 5a3c
00000270: 39bd 0f3c e80c ee3b d03b c53b 0d23 6bbb
00000280: 2aea 883b 59c6 c9bc 641d 56bc 1e71 103b
00000290: 10e6 ccb9 a4f6 25bc 9525 2a3c 8f45 4dbd
000002a0: 5007 e33b ac35 923a cc36 a5bd 16fb 573d
000002b0: 8d3d edbc 8386 87bc 2214 7bbb f1c9 93ba
000002c0: df54 6739 c331 02bc 89ee 78bc a8a0 03bc
000002d0: 085f 4c3c 9af0 af3a f64b 75bb ea5f 1a3c
000002e0: fcfb 453a 2558 84bb d129 31bc 543a ca3a
000002f0: 596e 343c 3e88 a9ba 62fb cf3c fde7 f6bc
00000300: 6aad e03a 0364 20bc c366 84bc 0fe8 03bc
00000310: f0d9 fbbb 764d 1b3b 2f46 72bc ac18 2c3c
00000320: db66 7d3c be62 35bc e9d8 15bb 8d62 ccbc
00000330: 07ad ef3b 2b64 6139 bdfc 8cbc 3ed5 7bbc
00000340: de25 2f3b 3c34 fb3b a8cc 0c39 d5a4 62bb
00000350: 91c8 0e3c 47f9 523c 210b 943c e882 e9ba
00000360: 5a78 e9bb 9132 e83b 9cda d8b7 8e98 9e3b
00000370: f39f 29bb c122 63bb d325 7cbb 050d abbc
00000380: f9d9 4abc 6730 2d3c d324 013b a1be b6bc
00000390: 7f3a 533c 13e5 333c 56af 813c f1b5 b5bb
000003a0: a472 a93b 0286 37bb 5fb7 61bc ffe2 ef3b
000003b0: 91a6 ff3b ed1a 91bb ba6b 3f3d 1844 443d
000003c0: 1197 6d3c 64a8 4cbd fb0a 183a b3e8 b8ba
000003d0: 7e1d 10bb 8cc2 44bb eb02 bbbb 5301 763c
000003e0: bb67 953b c370 bc3c 65bc de3c acc4 e23b
000003f0: face d63b 3b2c 66bc 48af d13b 2c57 6abc
