gsoc/2024/ISSR_DarkWeb/Analyze_files/CombiningAnalysisCompleteDataset/ThreadAnalysis/Models/topic_model_all-MiniLM-L6-v2_400_safetensors/topic_embeddings.safetensors (safetensors, 43096 bytes, 1 tensors)

topic_embeddings f4 [28, 384]
0	0xbd829ab6	-0.06377165
1	0x3ca36c6c	0.01994916
2	0xbc24ed4a	-0.01006634
3	0x39eb9840	0.00044936128
4	0xbc8e5d7e	-0.017378565
5	0xbcf54eb6	-0.029944759
6	0x3d909d08	0.07061201
7	0x3cac2e6a	0.021018226
8	0x3c0c4375	0.008561005
9	0x3b3f074d	0.0029148639
10	0x3c1175f6	0.008878222
11	0xbd35c1b5	-0.044374187
12	0xbca512e7	-0.020150615
13	0xbb2d2553	-0.0026419952
14	0xbccc2dc3	-0.024924165
15	0x3d0bab07	0.03409865
16	0xbc269902	-0.010168316
17	0xbc966210	-0.018357307
18	0xbd57ee9d	-0.052717794
19	0xbca89124	-0.020577021
20	0xbd8e09f7	-0.069354944
21	0x3a4c975c	0.0007804537
22	0xbbfdb3d6	-0.0077423854
23	0x3bce4ab9	0.0062955287
24	0xbd094cce	-0.033520512
25	0x3c8a17cf	0.016857056
26	0xbcdf03f2	-0.027223561
27	0x3d316234	0.043306544
28	0x3cbb5ddc	0.022871904
29	0xbdaaa808	-0.08332831
30	0xbba21c71	-0.004947238
31	0x3b440864	0.0029912228
32	0x3d089b5c	0.033351287
33	0x3c14f105	0.009090667
34	0x3c47ef86	0.012203103
35	0xbbee4316	-0.007271181
36	0x3c0388af	0.008028193
37	0x3c37ffdd	0.011230436
38	0x3c8450b1	0.016151758
39	0xbac12ecb	-0.0014738677
40	0xbc350ebe	-0.011050878
41	0xbd1d2550	-0.038365662
42	0xbce12cac	-0.027487122
43	0x3c02e413	0.007988947
44	0x3ce196cb	0.027537724
45	0x3c52d4c9	0.012868115
46	0x3ca09a49	0.019604819
47	0x3c45a4d4	0.012063224
48	0x3cec7481	0.028864147
49	0x3cefa50f	0.02925351
50	0xbc3dc04e	-0.011581494
51	0xbcc6ec98	-0.024282739
52	0xbc2d6ead	-0.010585469
53	0xbb1103c5	-0.002212749
54	0x3bb50d46	0.005525264
55	0x3b9b4895	0.004738877
56	0xbcd3152d	-0.025766933
57	0x3c47b313	0.012188691
58	0x3c7645f7	0.015031329
59	0xbccf9364	-0.025338836
60	0x3d1a00ef	0.037598547
61	0xbbb12b5d	-0.0054067806
62	0xbd525786	-0.051353
63	0x3d46f2f1	0.04857153
64	0x3b93c3e1	0.0045094346
65	0x3c0a5984	0.008444194
66	0xbc3524b9	-0.011056119
67	0xb7f10b7e	-2.873479e-05
68	0xbcf19e41	-0.029494407
69	0xbce6aa6b	-0.028157433
70	0xbc608041	-0.013702453
71	0x3c9c4075	0.019073704
72	0xbc67d674	-0.014150251
73	0x39cd546f	0.00039163555
74	0x3d03a5e1	0.032140616
75	0xba0f9e1c	-0.0005478577
76	0x3d109a58	0.035303444
77	0xbd2a6b69	-0.04160634
78	0x3d2e1e86	0.04250958
79	0xbaccac48	-0.0015615309
80	0xbb1b8444	-0.002372996
81	0x3d05ccee	0.03266614
82	0xbce1f0d4	-0.027580656
83	0xbc48fc60	-0.012267202
84	0x3c4ddd65	0.012564992
85	0xbc6e262c	-0.014535468
86	0x3cca3e76	0.024687987
87	0x3cee26d6	0.029071253
88	0xbd2f7951	-0.042840306
89	0x3bec3ea5	0.0072096162
90	0xbb2fc2d1	-0.0026819
91	0x3cf6742f	0.030084698
92	0x3d1a5765	0.037681002
93	0x3bfc82d1	0.007706024
94	0xbd16fd2d	-0.03686254
95	0x3cedd5c1	0.02903259
96	0x3c978ecf	0.018500714
97	0x3bf4939e	0.0074638864
98	0xbd81fa32	-0.06346549
99	0x3e80ff1b	0.2519463
100	0x3c8fe484	0.01756502
101	0x3cf88407	0.030336393
102	0xbc524d73	-0.012835848
103	0x3c079f45	0.008277719
104	0xbcad318a	-0.021141786
105	0xbb8b9215	-0.0042593577
106	0xbd5467fd	-0.051856983
107	0x3d235ec9	0.039885316
108	0xbb171908	-0.0023055691
109	0xbba91872	-0.005160385
110	0xbd2ed9c3	-0.042688143
111	0x3cd977c0	0.026546359
112	0xbd2ad7ba	-0.04170964
113	0xbba1fcd2	-0.0049434686
114	0xbbf63ebc	-0.0075148027
115	0x3cbcc8b2	0.023044918
116	0xbc92cfe7	-0.017921401
117	0x3d1d6f6e	0.038436346
118	0x3cdf9c08	0.027296081
119	0xbcbdc70b	-0.0231662
120	0x3c9ae99d	0.018910224
121	0x3c821e33	0.01588354
122	0xbc24af1b	-0.010051514
123	0xbc715edc	-0.014732089
124	0xbd119891	-0.03554589
125	0xbd537a69	-0.05163041
126	0x3c978b22	0.01849896
127	0x899eec4b	-3.8259325e-33
128	0x3c4ef778	0.012632243
129	0x3ba7c2f2	0.005119675
130	0x3c79f27c	0.015255567
131	0x3ce161f6	0.027512532
132	0x3b409f14	0.0029391693
133	0x3ca7e324	0.020494051
134	0x3cab7248	0.020928517
135	0xbc42d462	-0.011891456
136	0xbd431865	-0.047630686
137	0x3d2e58dc	0.04256521
138	0xbb3934f0	-0.0028260313
139	0x3c26c96f	0.010179861
140	0xbd083eef	-0.033263143
141	0x3c240ead	0.010013265
142	0x3d64cc30	0.05585879
143	0xbb56a375	-0.0032751237
144	0x3cebf9ed	0.028805697
145	0x3cff27e7	0.031146957
146	0xbc5ece66	-0.013599014
147	0xbc290985	-0.010317211
148	0xbce95b0a	-0.028485794
149	0x3cd8adbd	0.026450032
150	0x3a766feb	0.00094008324
151	0x3d59f2fa	0.053210236
152	0xbce99a1b	-0.028515866
153	0xbc9c0349	-0.019044535
154	0x3c05c25a	0.008164013
155	0xbcabbc0a	-0.020963687
156	0x3c920c2e	0.017828073
157	0x3c90e395	0.017686645
158	0xbc8202a3	-0.015870398
159	0x3b4c8ec7	0.0031213032
160	0x3c6b8bbb	0.014376576
161	0x3ba1fe2f	0.004943631
162	0xbc48254e	-0.012215925
163	0xbc3ea79d	-0.011636642
164	0xba82b0a0	-0.0009970851
165	0xbd4e2102	-0.050324447
166	0x3c3d7420	0.011563331
167	0xbd3d497c	-0.04621266
168	0xbc3dec77	-0.011592022
169	0x3cb6e7e7	0.022327377
170	0xbd65dcb1	-0.05611867
171	0x3c8ec057	0.0174257
172	0xbc3dfe8a	-0.011596331
173	0x3c942b35	0.018087009
174	0x3d180e89	0.037123237
175	0x3cbdee79	0.023185002
176	0x3bafcc12	0.0053649032
177	0x3d0c2a94	0.034220293
178	0xbcb4fbd7	-0.022092743
179	0xbc27fe84	-0.010253552
180	0xbd9cd256	-0.07657306
181	0x3d072202	0.032991417
182	0xbcdcb206	-0.026940357
183	0xbd106940	-0.035256624
184	0x3ca544e0	0.020174444
185	0xbd26d664	-0.040731803
186	0x3c8a474b	0.016879698
187	0xbc97310a	-0.018456
188	0x3d36f325	0.044665474
189	0x3d9b0402	0.07569124
190	0x3b8026b7	0.003910865
191	0x3b82b5fc	0.0039889794
192	0xbca19d6e	-0.019728389
193	0xbd2b9733	-0.04189224
194	0x3b9c88cc	0.0047770496
195	0xbcf605df	-0.030032096
196	0x3bc25ca4	0.005931454
197	0xbbf7e2aa	-0.0075648623
198	0xbd55514f	-0.052079495
199	0x3c7ba5e6	0.0153593775
200	0x3d87607f	0.06610202
201	0x3b5ae33c	0.0033399602
202	0xbbabded8	-0.005245071
203	0xbcaf3a18	-0.021390006
204	0xbb526b5d	-0.003210745
205	0x3c9e0070	0.019287318
206	0xbbd7ebdc	-0.006589396
207	0xbca35008	-0.019935623
208	0xbd158cd4	-0.036511257
209	0x3b84fabe	0.004058211
210	0xbc9bb866	-0.019008826
211	0x3d4255bb	0.04744504
212	0x3d0e4485	0.034733314
213	0x3ca3e0c3	0.020004636
214	0xbc5e08c3	-0.013551894
215	0xbcf865b2	-0.03032193
216	0x3cd538c0	0.026028037
217	0x3b9e636a	0.0048336284
218	0xbda60c17	-0.08107775
219	0x3980f4b3	0.00024596378
220	0x3d193c7b	0.037411194
221	0x3cdcb68b	0.026942512
222	0xbc5e8ad7	-0.013582907
223	0x098290d2	3.143255e-33
224	0xbd209ebf	-0.039213892
225	0xbc6dc8f5	-0.014513244
226	0xbcc2a5ab	-0.023760637
227	0x3d2d539f	0.042316075
228	0x3ce443e1	0.027864398
229	0xbb605192	-0.0034228307
230	0x3ca27096	0.019829076
231	0x3c571064	0.013126466
232	0x3aec4b37	0.0018027787
233	0x3d01ea5c	0.031717643
234	0xbbd31545	-0.0064417445
235	0xbcdc4819	-0.026889848
236	0x3d69cb62	0.057078727
237	0xba509d00	-0.0007957965
238	0x3d813103	0.06308176
239	0x3d0340dd	0.03204428
240	0x3d124d28	0.035718113
241	0xbc55cf3c	-0.013049897
242	0xbc57487e	-0.013139842
243	0x3c442f5e	0.011974184
244	0xbcb1bbc6	-0.021695983
245	0xbbe9a082	-0.0071297297
246	0xbc4e8e93	-0.0126072345
247	0x3c1f6e2f	0.00973086
248	0xbcdb8bb3	-0.026800012
249	0x3cec898e	0.028874185
250	0x3da7094c	0.0815607
251	0x3cf5e35a	0.030015636
252	0xbca81d72	-0.020521853
253	0xbc2dc775	-0.010606636
254	0x3d3f0508	0.046635658
255	0xbcb7593f	-0.022381423
